src/results/ann_model.pt (torch, 369471 bytes, 15 tensors)

fc1.weight f4 [256, 187]
000000 2d 54 23 be 25 96 5b 3e 3b 9a 3b be cc 09 c2 3d
       -0.1595008 0.21443994 -0.18320553 0.09474525
000010 c1 1e 76 3d c2 df 27 3e 9f 5b 5a be 1a d4 8e bd
       0.060087923 0.1639395 -0.21324013 -0.06974049
000020 0b bb 30 be 57 0d 14 be 47 ba 42 3c 0b 2d 21 3e
       -0.17258851 -0.14458214 0.011885232 0.15739839
000030 d7 b3 4a 3e 6f 33 95 bd 24 f3 80 bd cb 93 07 be
       0.19795166 -0.07285201 -0.062963754 -0.13239972
000040 a7 b2 73 3e 97 6c ff 3d 57 3b ac bd 32 60 7d 3e
       0.23798619 0.12471884 -0.08409756 0.24743727
000050 02 9b 44 3d 63 a7 1c 3e fd 35 da 3d 7a 20 2c be
       0.04799939 0.15298228 0.10654829 -0.16809264
000060 c0 11 a5 3d b6 fb d6 3c e1 d4 67 3d c0 0c bc bd
       0.08060026 0.026243072 0.0565995 -0.09182119
000070 83 73 c9 3d d5 fe 18 3e 00 da 2b bc a1 10 77 3e
       0.09836485 0.1494096 -0.010488987 0.24127437
000080 3b e1 e0 bd 15 6f 61 3d df 73 43 be 92 e9 0e be
       -0.10980459 0.055037577 -0.1908717 -0.13956288
000090 c2 24 1b bc a9 05 43 3e ec 9f 15 3e fa c9 e6 bd
       -0.009469213 0.19045128 0.14611787 -0.11268993
0000a0 0b a0 46 3d 0d 2f 22 bd 13 30 22 3d 9a c7 4d be
       0.048492473 -0.039595652 0.03959663 -0.20095673
0000b0 bf 23 16 be a1 27 2d be 13 d4 91 3c ce eb 6a 3d
       -0.14662074 -0.16909648 0.01780132 0.057353787
0000c0 a4 e7 f4 bc d4 0e ea 3c 6a 9f e4 3d 18 7a 65 3e
       -0.029895611 0.028571524 0.11163218 0.22409856
0000d0 46 b5 24 3e 93 c9 2d 3e 65 47 3f bd aa b3 4b 3e
       0.16084775 0.16971426 -0.046698947 0.19892755
0000e0 cc c2 1f 3f df d9 67 3e 2a 73 28 be ff cd e5 be
       0.6240661 0.22641705 -0.16450182 -0.44883725
0000f0 39 79 05 be 0c 77 c8 3d b3 40 96 bd 9f 6a 90 bd
       -0.13034524 0.097883314 -0.07336559 -0.07051586
000100 d7 1d b2 bc 16 05 9e 3d 75 0c 0e bd 14 71 a8 bc
       -0.021742744 0.07715814 -0.03467985 -0.020561732
000110 04 b8 2c 3d 1c dd 9b 3d 06 07 01 3e 48 8e 65 bd
       0.04216768 0.07610533 0.12600335 -0.056043893
000120 9e b4 38 3d a3 7e 68 3e 80 96 c1 3d a5 08 d0 3d
       0.045094125 0.22704558 0.09452534 0.10157899
000130 9b 58 1a 3e ae 43 9b bd 2f 93 6b bd 75 e9 53 bd
       0.15072863 -0.07581268 -0.057513412 -0.051736314
000140 d7 6b 9a 39 f6 12 19 3e 2b 15 3d 3e aa 9f 22 be
       0.00029453516 0.1494864 0.18465106 -0.1588122
000150 f3 89 fc bd fe f9 c0 bd 11 c7 0c bd e6 b4 a2 3b
       -0.12330999 -0.09422682 -0.034369532 0.0049654124
000160 4b a6 87 3d bb d1 6e bd 22 99 cc bc 6e 89 68 bd
       0.06623515 -0.058305483 -0.024975363 -0.05677169
000170 62 df 0c 3e c0 37 20 3e c8 a1 95 3d b2 88 63 3d
       0.13757089 0.15646267 0.07306248 0.055550285
000180 25 46 c5 3d f7 88 65 3b 0b d3 99 bd a9 18 53 bd
       0.0963252 0.0035024264 -0.075109564 -0.05153719
000190 f6 1c 31 3e 5d ef 06 bb 53 40 c4 bd bf da c4 bb
       0.17296204 -0.002058945 -0.09582581 -0.006007522
0001a0 a0 ab 0c be 0d a6 bf bd be 2a 2c bc fa 48 21 3c
       -0.13737345 -0.093578435 -0.010508237 0.009844059
0001b0 47 bc bb bd 87 0a 24 be 47 48 33 be 0d d7 57 bd
       -0.091667704 -0.16019641 -0.1750804 -0.052695323
0001c0 22 87 1d bd 9b 97 1d bd c1 96 54 bd 1a ac 58 be
       -0.03845895 -0.03847466 -0.051901583 -0.21159402
0001d0 0b ae 94 bb 7e cb 14 bd 05 2d 85 bd 37 32 9b bd
       -0.004537349 -0.036326878 -0.065027274 -0.07577937
0001e0 4c fa f8 3b 23 19 03 3d db 90 cf 3d 2f 8c aa 3d
       0.007598197 0.032006394 0.10135051 0.08327519
0001f0 43 dc 76 3b c4 0e 99 bc c5 d1 87 3d c8 ab 22 bd
       0.0037667907 -0.018683799 0.06631807 -0.039714605
000200 cc 14 dc bd 41 43 03 bd 50 91 ad bd 8c 13 97 bd
       -0.10746154 -0.03204656 -0.08474982 -0.07376775
000210 32 49 b2 bd e6 92 b1 bd d0 0a e3 bc 7d 14 03 bc
       -0.08705367 -0.08670597 -0.027715117 -0.00800049
000220 ee be 12 3c 5e b7 8f 3c e5 b4 7a 3d 86 42 02 3d
       0.008956654 0.017543491 0.06120767 0.031801723
000230 9a 51 c9 3d 8b 6f 9e 3d a7 cc 0e 3e eb 57 94 3d
       0.098300174 0.07736119 0.13945256 0.072433315
000240 20 ca 85 bc f3 7f 12 bc 63 dc 73 3d 06 cb 8a 3c
       -0.016331732 -0.008941638 0.05953635 0.016942512
000250 59 12 e4 39 5f 3d 67 3c e0 32 e3 3c 8c 40 00 bd
       0.0004350122 0.014113753 0.02773422 -0.031311557
000260 6b 88 5f 3c 86 49 b4 3d 13 be f2 3c 16 29 4d be
       0.013643364 0.08803086 0.02963165 -0.20035204
000270 d6 33 05 be 38 f6 8a be 84 d7 4d be 02 c0 a3 be
       -0.13008055 -0.27140975 -0.20101744 -0.31982428
000280 4b 71 9c be 9f 1a 94 be 1d 77 8e be 87 67 23 be
       -0.30555186 -0.2892656 -0.2782525 -0.15957461
000290 9b 1c e9 3a 8e 6d 1b 3d 9b e2 ef ba 45 c4 0d 3e
       0.0017785014 0.037946276 -0.0018301787 0.13844402
0002a0 2e 94 76 3d ce f1 14 3e 68 ac 20 3e cd 6d 6c 3d
       0.06019991 0.14545366 0.15690768 0.0577219
0002b0 79 d2 61 3e a3 d7 26 3e ca 82 8e bc 4d 87 27 3d
       0.22052945 0.16293196 -0.01739635 0.040900517
0002c0 57 9b 35 3c cf 0e e5 bc 7a d8 62 3d be 1a 08 bd
       0.011084399 -0.027961163 0.05538223 -0.03322863
0002d0 c2 2d bf 3e 3d 0c 01 be 82 81 80 3e e1 e0 b6 3d
       0.37339598 -0.12602325 0.25098807 0.08929611
0002e0 29 d9 c5 3d 41 7e e4 3c c2 e4 06 3e a9 93 2e 3e
       0.09660561 0.027892234 0.13173202 0.17048515
0002f0 5a 32 11 be 72 12 8c bd 73 da 6e 3e 8b f2 55 bd
       -0.14179364 -0.06839456 0.2332552 -0.05223326
000300 67 dd 26 bd 91 41 36 bd 53 76 4e be 8f 80 21 be
       -0.04073849 -0.044496123 -0.20162325 -0.15771697
000310 3d fa 0e be 09 2f 28 3d 25 3c 3f be 2c 79 34 3d
       -0.13962646 0.04106048 -0.18675287 0.04406087
000320 3c af 2c be d6 8d bb 3e c2 f4 cc 3d 78 9d 6b bd
       -0.16863722 0.3663165 0.10007621 -0.05752322
000330 35 53 dc 3d b9 05 be 3e 74 2f 64 be 46 5a d2 bd
       0.10758058 0.3711374 -0.22283727 -0.102711245
000340 78 fc 19 3e d2 4d ef bd d8 12 75 bd f4 9e 4f 3e
       0.15037715 -0.11684765 -0.059832424 0.2027548
000350 74 77 80 3e ef 7f 4a be 9f 75 0b be c7 35 38 3e
       0.25091136 -0.19775365 -0.13619088 0.17989264
000360 5e 58 7e be 48 ff fd 3d 8a 4b c9 3d 11 7c d0 bd
       -0.24838397 0.12402207 0.09828861 -0.10179914
000370 4e 67 3d bd 2f 00 6f 3e 0c bb d7 3d a4 c7 89 bb
       -0.046241097 0.23339914 0.10533723 -0.004204707
000380 41 73 36 be 92 12 a1 bd 6b 44 10 be 35 a5 8b 3d
       -0.17817403 -0.0786487 -0.140886 0.0681862
000390 18 76 60 bd 02 8b f7 bd f7 dc c1 bd 9f 50 d8 3d
       -0.054800123 -0.120870605 -0.09465974 0.10562252
0003a0 53 77 2d 3d b3 58 77 bd 5b 90 ce bd 9b 9e 95 bd
       0.042350125 -0.060387325 -0.10086127 -0.07305642
0003b0 54 c0 08 3e d5 33 ea 3c a2 dc 41 bd 12 11 e1 3d
       0.13354617 0.028589169 -0.047329552 0.10989584
0003c0 f4 0a 0c 3e 3f 77 6e 3d 43 06 2c 3e b9 3d 7b 3d
       0.13676053 0.05821919 0.16799264 0.06133816
0003d0 3a 26 df be 75 24 83 be b5 42 6f be 6d aa ce b9
       -0.43583852 -0.25613752 -0.2336529 -0.0003941836
0003e0 90 b9 89 3d 11 a4 43 bd a9 08 75 3c e9 56 a4 3d
       0.06724846 -0.047763888 0.014955678 0.08024389
0003f0 78 48 25 3e 94 c5 b9 3d bb 24 fb bc e8 0b 18 bb
       0.16140926 0.09070888 -0.030657163 -0.0023200456

fc1.bias f4 [256]
000000 15 94 85 be 80 f4 a5 be da f4 ee be c1 63 0f bf
       -0.2608954 -0.324131 -0.46671182 -0.5601159
000010 b2 d0 a4 be 93 1f ea be c2 d6 de be 87 b0 8d be
       -0.32190472 -0.45727214 -0.43523222 -0.27673742
000020 24 0a c1 be a8 45 c4 be 18 24 95 be 0e 5a a2 be
       -0.3770305 -0.38334394 -0.291291 -0.3170933
000030 64 1a fc be 25 e4 b6 be 79 ef 11 be 7b 44 b3 be
       -0.49238884 -0.35720935 -0.14251508 -0.35013184
000040 00 4c 1c bf 6a c1 d8 be 19 f7 65 be b0 7f ae be
       -0.61053467 -0.42335063 -0.22457542 -0.34081793
000050 f3 44 d9 be 52 60 c3 be f8 87 ad be df d8 d1 be
       -0.42435417 -0.38159424 -0.33892798 -0.40985772
000060 52 a5 1d bf b7 f9 28 be 7a 1c 97 be 26 4a ea be
       -0.61580384 -0.16501509 -0.29513913 -0.45759696
000070 f8 61 3c be c7 ed 1e be 4c f6 57 be 9c 51 cc bd
       -0.18396747 -0.15520392 -0.21090049 -0.09976503
000080 d6 0e a7 be 78 df 0f bf 81 42 d1 be 9b 72 f8 be
       -0.32628506 -0.5620036 -0.4087105 -0.48524937
000090 d8 20 b6 be 99 37 da be a8 1d 7d bd 8b 74 5e be
       -0.35571933 -0.42620543 -0.06179586 -0.21724145
0000a0 0e 10 ba be cf 34 e1 be c6 78 f0 be 08 15 ce be
       -0.36340374 -0.43985602 -0.46967143 -0.4025042
0000b0 0a ff 3a be 6f 00 0f bf c9 d0 4c be 5f 80 11 bf
       -0.18261352 -0.55860037 -0.2000152 -0.56836504
0000c0 02 09 95 be b2 8e 78 be 69 ca 96 be 60 dc dc be
       -0.29108435 -0.24273184 -0.29451302 -0.43136883
0000d0 9d 0a 8b be 5b 23 a1 be f7 86 d6 be ab 6a a2 bd
       -0.27156535 -0.31472287 -0.41899845 -0.079305016
0000e0 7e ea 22 bf ec 71 11 bf 41 2c 84 be 68 4e 0d bf
       -0.63639057 -0.56814456 -0.25815013 -0.55197763
0000f0 b8 d4 7b be 7e b2 0d bf a8 b5 ac be 0c 31 37 be
       -0.24592865 -0.5535048 -0.33732343 -0.17889804
000100 2b 74 0f bf d4 51 13 bf 8d 69 82 be f3 bf ef be
       -0.56036633 -0.57546735 -0.25471154 -0.46826133
000110 0e fc a4 be 61 20 ca be e9 a3 c7 be 3e 4e ae be
       -0.32223552 -0.39477828 -0.3899224 -0.3404407
000120 e3 ff fb be 30 b0 41 bf 95 2b 80 be fe 8a 5d be
       -0.49218664 -0.75659466 -0.2503325 -0.21635053
000130 d4 b3 e6 be 41 8d cd be 42 81 bb be 88 b2 74 be
       -0.45059073 -0.4014683 -0.36622053 -0.2389623
000140 19 aa 11 bf f4 d1 30 bf b3 8f c1 be b8 1e 80 be
       -0.56900173 -0.69070363 -0.37804946 -0.25023437
000150 46 39 96 be bf 3d e7 be a8 e2 48 bf 54 92 b5 be
       -0.2934057 -0.45164296 -0.7847085 -0.35463202
000160 bc f6 be bd 85 ae db be 02 8b d9 be ea 31 8b be
       -0.093244046 -0.42906585 -0.42488867 -0.2718652
000170 8c e5 bf be 5b 50 ae be b6 a9 fc be 26 55 1e bf
       -0.37479818 -0.3404568 -0.4934823 -0.61848676
000180 74 d0 f5 be 93 1d 80 be 6b 26 ee be 9d 87 75 be
       -0.480106 -0.25022563 -0.46513686 -0.23977514
000190 bf 08 d3 bd f9 31 d7 be 7b ed 14 bf 95 cc f8 be
       -0.103044026 -0.42030314 -0.58174866 -0.48593584
0001a0 50 6b 75 be 95 21 93 be af d5 74 be 72 5f fe be
       -0.23966718 -0.2873656 -0.23909639 -0.49682194
0001b0 2c ec 3f be 35 20 cb be 3d 3b 3c be 4f ee 1d bf
       -0.18742436 -0.3967301 -0.18381973 -0.61691755
0001c0 80 2f 55 be 73 11 c6 be a2 6a e7 be fd 3a 98 be
       -0.20818901 -0.38685188 -0.45198542 -0.29732504
0001d0 68 e0 c6 be 50 fb 67 be 77 84 f6 be 93 6a ac be
       -0.38843083 -0.22654462 -0.48147938 -0.3367506
0001e0 d9 46 38 be d8 6e 8a be 56 a6 bf be 18 90 12 bf
       -0.17995776 -0.27037692 -0.37431592 -0.5725112
0001f0 ed c2 b0 be ae 4f d4 be c2 e1 03 bf 1d 7b 50 be
       -0.34523717 -0.4146704 -0.51516354 -0.20359464
000200 92 10 dc be b5 36 a9 be 12 88 c3 be ac 1d cb be
       -0.42981392 -0.3304955 -0.3818975 -0.39671075
000210 3a 04 2e be f9 2c 06 bf 48 1f 34 be d8 b6 81 be
       -0.169938 -0.5241237 -0.17590058 -0.2533481
000220 c3 3e b6 be b2 3e bb be 14 97 a1 be 1b 7a 06 bf
       -0.35594758 -0.3657127 -0.31560576 -0.5253007
000230 8b a9 f5 be e2 cb 43 be ee ec c3 be 23 20 04 bf
       -0.47980914 -0.19120744 -0.382667 -0.51611537
000240 9d db 48 be 66 07 0c bf 13 d5 af be 6c 3a bd be
       -0.19615026 -0.5469879 -0.3434225 -0.36958635
000250 aa b9 0e bf 20 08 81 be e7 b7 c6 be e1 14 d4 be
       -0.5575205 -0.2520151 -0.3881218 -0.4142218
000260 aa ad a6 be aa 80 16 be 54 c9 53 bd 73 be 37 bf
       -0.3255437 -0.14697519 -0.051705673 -0.7177498
000270 89 65 21 bf cc da 47 be 65 2e 02 bf da e8 3d bf
       -0.63045555 -0.19517058 -0.5085204 -0.7418343
000280 eb e7 e9 bd 8e 0e 6a be cb bf aa be fc 01 e7 be
       -0.11421188 -0.22857115 -0.3334945 -0.451187
000290 b2 09 84 be 69 c8 ad be b4 14 6a be 75 d4 8e be
       -0.25788647 -0.33941963 -0.2285946 -0.27896467
0002a0 58 e1 8c be 7f b2 60 be 9f 53 02 be 9f 62 89 be
       -0.27515674 -0.21943091 -0.12727211 -0.26833054
0002b0 12 5c c6 be 41 bc f0 be b0 51 be be 11 46 04 bf
       -0.3874212 -0.47018626 -0.37171698 -0.5166941
0002c0 18 10 6b be 54 1c f1 be 45 1a c8 be 1a b4 91 be
       -0.22955358 -0.47091925 -0.39082542 -0.2845772
0002d0 3d af b6 be 56 53 3b bf 98 1d 3e bf a4 a9 c6 be
       -0.3568057 -0.73174036 -0.74263906 -0.388013
0002e0 a8 c7 2e be a1 d6 b5 be d5 ce c4 be 29 2f ad be
       -0.1706835 -0.3551531 -0.3843905 -0.33825043
0002f0 b9 a1 97 be a2 af ba be 14 53 a1 be c4 4c a2 be
       -0.29615572 -0.36462122 -0.31508696 -0.31699193
000300 24 d9 a4 be 4a af dc be 4c 84 cb be e8 53 c2 be
       -0.32196915 -0.43102485 -0.39749372 -0.3795464
000310 09 11 c3 be 8b 13 57 be 2d 93 b1 be 53 11 e2 be
       -0.38098934 -0.21003549 -0.346826 -0.44153842
000320 00 51 b9 be e1 51 c9 be ab 55 65 be 65 ef 12 bf
       -0.3619461 -0.3932028 -0.22395961 -0.5739654
000330 57 85 ff be ea bf e1 be 12 f0 cb be 53 60 98 be
       -0.49906418 -0.4409173 -0.39831597 -0.2976099
000340 cb dd dd be 25 14 3e be 9f 8d 92 be 54 58 11 bf
       -0.43333277 -0.18562372 -0.28623673 -0.56775403
000350 06 68 39 bf 2a 1d 2f be f4 28 8d be 67 73 81 be
       -0.7242435 -0.17100969 -0.27570307 -0.25283358
000360 f9 7d d1 be 8d 4b 9a be b6 d0 c3 be 07 86 fa bd
       -0.40916422 -0.30135766 -0.3824517 -0.12232595
000370 b4 19 cd be 8c a8 81 be 0b 24 07 bf 20 1a a1 be
       -0.40058672 -0.25323904 -0.5278937 -0.31465244
000380 9d a0 bb be 97 e9 b5 be eb b0 f4 bd 75 29 94 be
       -0.36645976 -0.35529777 -0.11947807 -0.2893788
000390 d6 04 e0 bd 6e af 8d be b9 bd a4 be a4 24 e1 be
       -0.109384224 -0.27672905 -0.32175997 -0.43973267
0003a0 54 d8 bb be 5f d2 65 be 96 bc 34 bf 8b c0 a7 be
       -0.36688483 -0.22443531 -0.7060026 -0.32764086
0003b0 b1 ca d1 be 53 ea 83 be 5e 4f d5 be a9 b8 a3 be
       -0.40974954 -0.25764713 -0.41662115 -0.31976822
0003c0 e9 e4 b2 be 25 4e d1 be c4 3a a5 be 4d 86 89 be
       -0.3494027 -0.40879932 -0.32271397 -0.26860276
0003d0 d5 f2 f6 bc 43 89 ae be 0d 59 38 bf 04 f1 da be
       -0.030145088 -0.34089097 -0.7201088 -0.42762005
0003e0 5a 92 19 bf cf 06 b1 be c0 ae 84 be 3c b9 b2 be
       -0.5998894 -0.34575507 -0.25914574 -0.34906948
0003f0 06 e8 35 bf 6f 1c 28 be 93 a8 9d be fd ba 61 be
       -0.71057165 -0.16417097 -0.30792674 -0.22043987

fc2.weight f4 [128, 256]
000000 c5 f0 08 be 15 cd cd bd ac d3 0e be 69 0e a3 bd
       -0.13373096 -0.10048882 -0.13947934 -0.07961733
000010 33 06 84 be c8 e6 4b 3e 12 36 93 bd c9 42 1a be
       -0.2578598 0.19912255 -0.071880475 -0.15064539
000020 51 7e 13 bd 4e 12 b7 3d ce 10 36 be e8 80 73 be
       -0.036009137 0.08939038 -0.17779848 -0.23779643
000030 d6 12 a8 3e 27 8a e9 3d fd a8 1b bd c8 9b d6 3c
       0.3282687 0.114033036 -0.038002957 0.02619733
000040 07 78 a0 3c 6f 90 b2 bd 55 94 b2 3d 91 6d 67 3d
       0.019588483 -0.08718955 0.08719698 0.056500975
000050 1b 4d c8 bd 49 e5 2f 3e ca c2 f4 3d 11 43 03 3d
       -0.09780332 0.17177309 0.119512156 0.03204638
000060 80 07 43 be ec c6 e0 bd a4 a2 a8 3c 69 a9 1e 3d
       -0.1904583 -0.10975441 0.020585366 0.03873578
000070 83 ac b7 3d 99 39 30 3d db 7b 68 3d 3c 0c af bd
       0.08968451 0.04302368 0.056758743 -0.085472554
000080 a4 19 1c be 78 8f 27 3e 21 9e 8c 3c 27 00 ac bd
       -0.15244156 0.16363323 0.017165245 -0.083984666
000090 ac ee cb 3d 78 9f 39 3b af 7a 53 3c 32 4a 05 3e
       0.099576324 0.002832381 0.012907668 0.13016585
0000a0 23 2e 50 3d 0c ee 92 3d b3 b6 c0 bd 0e c2 e9 bd
       0.05082525 0.0717431 -0.09409847 -0.11413966
0000b0 cc 44 10 3e b8 71 52 bd 5b c0 88 bd 53 61 70 be
       0.14088744 -0.051377982 -0.06677314 -0.23474626
0000c0 d8 05 ce bc 60 41 ce 3d d7 6a 08 be 67 04 28 3e
       -0.02514927 0.10071063 -0.13322006 0.1640793
0000d0 b1 bb 9f 3d 14 0e 86 3c b5 48 ba 3d 52 68 07 3d
       0.07799471 0.016364135 0.09095899 0.033058472
0000e0 20 54 f7 3b 00 d4 27 3e b7 c2 d2 3d bc 91 50 3d
       0.0075478703 0.16389465 0.10291045 0.050920233
0000f0 18 2c 1c bd 38 78 56 3e 05 ab ac 3c dc 98 3f be
       -0.03812799 0.20944297 0.021077642 -0.18710655
000100 62 a5 e0 3d b7 29 6c 3d f7 59 08 3e e7 3e 09 be
       0.10969044 0.05765697 0.13315569 -0.13402902
000110 90 46 6f 3d f4 d0 99 bd 96 2d ce 3d ad 5f 50 3d
       0.058416903 -0.07510558 0.100672886 0.050872494
000120 9d 52 c9 3b ff d6 66 3d be fa 21 3d 90 98 28 bd
       0.0061438815 0.05635738 0.039545767 -0.04116112
000130 b1 38 00 bd 3f 51 1b be d3 22 cc 3d 82 91 e1 bd
       -0.031304065 -0.15167712 0.0996758 -0.110140815
000140 59 3c df 3d 2c 83 fd bd ae b1 5e be e3 ea 06 3e
       0.10900182 -0.12378535 -0.21747467 0.1317554
000150 a4 7a 5f bc 5d 9c e5 bd 4c 5c 0b 3e 69 6c 48 be
       -0.01364008 -0.112114646 0.13609427 -0.19572605
000160 d2 a8 0c be 80 02 9e bd c1 3c 89 3e df 16 42 3e
       -0.13736275 -0.077153206 0.26804164 0.18954037
000170 a6 b6 3d bd bb 8e 03 be 41 4e 90 be 8a d9 e8 bd
       -0.046316765 -0.12847416 -0.28184703 -0.11369617
000180 51 d1 b1 3d 27 71 d2 3d 9d 4f f2 3d b4 41 1a 3c
       0.08682502 0.10275488 0.11831591 0.009415079
000190 70 63 73 bc b4 89 0a 3d 59 d8 aa bd 6d e9 94 3d
       -0.014855251 0.03382273 -0.08342046 0.07271085
0001a0 0f 87 2b 3d 67 b4 98 bd 32 6d fb bc 35 1d 26 3e
       0.04187685 -0.07456284 -0.030691717 0.16222079
0001b0 af 1b c2 3d 6f 9d 60 3d 06 fc 46 bd 9d f9 67 3e
       0.094779365 0.05483764 -0.048580192 0.22653814
0001c0 74 38 d3 bc b1 8a 61 3d 4c 25 ed bd 93 32 44 be
       -0.025783755 0.055063907 -0.115793794 -0.19159918
0001d0 50 cf f1 bd dc df c6 bd 7b 66 3e be 5e 06 7b 3d
       -0.1180712 -0.097106665 -0.1859378 0.06128537
0001e0 ab fe 67 bc 8f 35 72 3e ba d9 6e bc 20 d4 df bd
       -0.014159839 0.23653243 -0.014578277 -0.109291315
0001f0 1b 56 fb bd dd 71 0d be 07 35 08 be 7d 36 81 bd
       -0.12272283 -0.13812967 -0.13301478 -0.06309221
000200 44 49 38 3e bb 00 5a bb 68 df 6a bc 4b 47 88 bc
       0.17996699 -0.0033264596 -0.014335491 -0.016635558
000210 f7 e3 b6 bb d1 00 08 bd 3f 85 3f be 65 a2 eb bc
       -0.0055813747 -0.033203904 -0.18703173 -0.02876396
000220 69 f2 d7 3d 68 2d 4a bd ed b0 8d be 30 72 00 3d
       0.10544283 -0.04935971 -0.27674046 0.031358898
000230 2f 9f 12 3e b7 06 41 3d 58 ec 82 3d 3f 98 be 3d
       0.14318536 0.047125544 0.06392735 0.093063824
000240 d8 9b 9c be 89 d7 ca bc 5f 2a 28 3e ff 2d ad bd
       -0.3058765 -0.024760978 0.16422413 -0.08456039
000250 71 b0 e3 bd fb 77 86 3d e0 54 8d be 32 95 39 be
       -0.11117638 0.06565853 -0.27603817 -0.1812332
000260 30 d0 c5 bd a3 5e 17 bd c0 2b 6e be 55 d4 df 3d
       -0.09658849 -0.036955487 -0.23258877 0.10929171
000270 7b 8b 45 bd df 05 4b bd 86 31 32 3e a5 25 76 bc
       -0.048228722 -0.049566146 0.17401704 -0.015023624
000280 f7 3e 12 bd 70 3d 82 be 36 93 01 be 8a 9a 7b be
       -0.03570458 -0.25437498 -0.12653813 -0.2457067
000290 0c 1b e9 3c 54 9c af bb a2 47 f0 3c 19 e3 b0 3d
       0.02845528 -0.005359212 0.029331032 0.086370654
0002a0 51 ae c9 3c fb ae 29 be 16 ce 7d bd de 4b bf 3c
       0.024619253 -0.16570656 -0.061964117 0.023351606
0002b0 b8 d3 5f 3d 4a a0 25 3d 3b 7e cf 3d 79 d3 50 be
       0.05464527 0.040436067 0.101314984 -0.2039317
0002c0 78 75 03 be 42 68 13 be a5 60 50 be 74 97 23 3e
       -0.1283778 -0.1439524 -0.20349367 0.15975744
0002d0 90 ae 88 3d b4 36 26 3e 5b 01 c6 3c d5 d4 06 be
       0.0667392 0.16231805 0.024170568 -0.13167126
0002e0 3f 00 1b be a7 2e 02 3e 79 1c ce bd bf 95 3d bd
       -0.15136813 0.12713109 -0.100640245 -0.046285387
0002f0 b0 25 eb bd a7 ec af be 47 dd bd 3c a2 46 c7 3d
       -0.11481798 -0.3436024 0.023176802 0.09730269
000300 3d 3b fa bd b1 e9 c7 3d a5 36 da bb 3b 02 02 be
       -0.1221833 0.0976137 -0.006659346 -0.12696163
000310 23 9b b1 bd e6 77 74 3e 4c 8d ae bc 6a ef d0 3d
       -0.08672168 0.23873863 -0.02130761 0.102019146
000320 fe 16 0c bd 82 58 64 3d 21 74 8a 3d 59 c3 f5 bd
       -0.034201615 0.05574847 0.06760431 -0.1200015
000330 2c a9 12 3e d2 0b e9 bd 64 34 52 3e 47 ed 2c bc
       0.14322346 -0.11379208 0.20527798 -0.010554618
000340 23 fc 3b 3e c9 fd 95 3d ac f9 a6 3d 2f 19 34 3e
       0.18357901 0.07323796 0.0815309 0.17587732
000350 1b c7 c1 bd 78 ed 3f 3e 67 b9 2d 3e 91 18 0e 3e
       -0.094618045 0.18742931 0.16965257 0.13876559
000360 f2 21 80 bd 30 a1 bc 3d 06 90 91 be 8a 24 26 3d
       -0.062564746 0.092104316 -0.28430194 0.04056219
000370 0d 9a fe 3d 8d 2e 8e bd 52 14 ca bc 52 91 6c be
       0.124317266 -0.069424726 -0.024667893 -0.2310231
000380 f6 22 d6 3d 44 66 45 3b de 90 56 be fd 4c 12 3d
       0.10455887 0.003012077 -0.209537 0.035717953
000390 e6 ad 05 3d ff 58 95 bb 02 89 03 3c 29 48 63 3d
       0.032636546 -0.0045577283 0.008028271 0.05548874
0003a0 62 4f a7 3d d6 c6 d5 3d 31 79 33 bd dc 50 1a be
       0.08169438 0.104383156 -0.04381675 -0.15069908
0003b0 7b 69 ff bc 3a ae b4 3b 08 01 55 bd 60 91 4e ba
       -0.031178227 0.0055139335 -0.052002937 -0.0007879939
0003c0 20 c3 b8 bd 4f d4 1b be 4d 07 08 bd fd 50 32 be
       -0.09021592 -0.15217708 -0.033210088 -0.17413707
0003d0 1a 47 93 3d e3 07 77 bd 59 5f e8 bc 4d c9 52 be
       0.07191296 -0.060310256 -0.028365778 -0.20584603
0003e0 5b 23 f4 bd 7f 08 b1 ba 97 f6 3a be 3b 09 28 3c
       -0.11920806 -0.001350656 -0.18258129 0.010256107
0003f0 31 50 5d 3c f7 e2 00 3d c8 3f b0 bd 57 a4 7c 3d
       0.013507889 0.03146645 -0.08605915 0.061680164

fc2.bias f4 [128]
000000 c0 d6 e2 3d 59 99 18 be 52 90 d9 3d 55 d1 6f 3e
       0.110761166 -0.14902247 0.1062323 0.23419698
000010 5c 6e 85 3e 4a e7 d9 3e 6b 6e 05 bf 98 0a 7b 3e
       0.2606076 0.42559272 -0.5212161 0.2451576
000020 7e ae 4c 3e d3 e6 39 3e 75 45 8b bd db c2 9f 3d
       0.19988438 0.18154459 -0.06800357 0.078008376
000030 2d 6a 89 be bf 5c 8d 3e 15 30 c9 3d ab 39 6d 3d
       -0.26838818 0.27609822 0.09823624 0.057916325
000040 7e 0f 36 3e e3 22 8a 3e fe af 3c 3e 2e fb d6 3c
       0.17779347 0.2697974 0.1842651 0.026242819
000050 d5 7e 44 be ae cd 88 bd 8f 37 46 3e f9 7d 0f bd
       -0.19189008 -0.06679855 0.19357131 -0.035032246
000060 a5 f8 4a 3e 1a d7 aa bd 96 96 af 3e ae 01 7c 3e
       0.19821413 -0.083418086 0.34294575 0.24610016
000070 79 c0 23 3e ca 8d a6 bc 85 ac 0b 3e 09 08 46 3e
       0.15991391 -0.020331282 0.1364003 0.19339003
000080 c0 13 ad 3d 58 46 29 3e 07 e5 ee 3d b7 a9 39 3d
       0.08451033 0.1653074 0.11664777 0.04532787
000090 a9 f5 07 bd 43 21 96 3e 66 1c 18 3e b9 27 8a 3d
       -0.033193264 0.29322252 0.14854583 0.06745858
0000a0 1d 82 68 3e 13 fa 88 3e 48 df 0e 3e ef 8d c8 3d
       0.22705884 0.2675329 0.13952363 0.09792697
0000b0 7d 30 78 bd ac e1 a5 3d d1 e1 73 bd 39 c6 87 3e
       -0.060593117 0.08099684 -0.059541527 0.2651842
0000c0 96 25 a4 3e 46 a4 7e 3d 04 ae 42 3e 1c 27 18 3e
       0.32059926 0.062168382 0.19011694 0.14858669
0000d0 f1 ed 09 3e 63 23 c5 3e 87 f9 fe 3d db 87 f2 3d
       0.13469674 0.3850356 0.12449937 0.118423186
0000e0 ce 6b 22 3e 8b 6e a9 3d a1 46 b0 bd 48 69 ae bc
       0.15861437 0.082730375 -0.086072214 -0.021290436
0000f0 78 10 23 be e1 09 81 3e 67 ac 83 3e 83 0c 4d 3e
       -0.15924251 0.2520285 0.2571747 0.20024304
000100 4a eb ba 3e eb 42 80 bd 51 3a 8b be ba 44 86 3e
       0.36507636 -0.062627636 -0.2719293 0.2622431
000110 d1 ec 9e 3e 53 94 15 3e 58 19 29 3e 7b 1a ca bc
       0.31040052 0.14607362 0.16513574 -0.02467083
000120 f6 c5 8e be 61 55 06 be 63 05 ea 3d d1 8a fe bd
       -0.27885407 -0.13118507 0.11426809 -0.12428821
000130 cd ec a4 3e 79 7a eb 3d 6c 8c 98 3d f4 64 4f 3e
       0.32211915 0.11497969 0.07448658 0.20253354
000140 93 fe 80 3e 32 66 41 3e 29 c3 fe bd 7d fb 4d 3e
       0.25194225 0.1888664 -0.124395676 0.20115466
000150 6c 98 71 3e e5 9b ab 3d 7c 13 8c 3e e0 15 b3 bd
       0.235933 0.08379344 0.27358615 -0.08744407
000160 cc 53 9b 3e b5 2d 43 3e 90 56 91 3d 1c 2c 39 bd
       0.3033737 0.19060405 0.070965886 -0.04520808
000170 c5 fe b8 bd d5 ea a7 3e 26 fa 53 3e 85 3e 9c 3e
       -0.090329684 0.3279635 0.20700893 0.3051645
000180 ad 29 89 3d 29 28 67 3d 09 20 a6 3d 33 0c 72 3e
       0.06697402 0.056434784 0.08111579 0.23637466
000190 93 d6 d8 bd 01 81 fe bd 35 57 b2 3e a5 fe c3 bc
       -0.10587802 -0.12426949 0.3483216 -0.023925135
0001a0 78 80 8c 3d 8e a7 da 3c 7c 61 e2 bc 1c af b2 3e
       0.06860441 0.026691224 -0.027634375 0.34899223
0001b0 00 b0 3c 3e 05 d9 f2 3d f0 19 5e 3e 83 97 21 3e
       0.18426514 0.118577994 0.21689582 0.15780453
0001c0 05 b2 65 3e cb 9a 8a bd 0a 0a a1 3d 80 65 3d 3e
       0.2243119 -0.06767806 0.07863243 0.1849575
0001d0 86 ae 8a 3e 5a 3a d9 bd 69 cd 90 bd 03 c2 41 be
       0.27086276 -0.10606833 -0.07070429 -0.18921666
0001e0 ae 10 4e 3c c0 31 e8 be 1f 8b e6 bd 9f 6d bc 3d
       0.012577219 -0.45350456 -0.11257004 0.09200596
0001f0 39 8a 70 bd f1 ff c7 bd 93 e2 0a 3e 56 dc b9 3e
       -0.05872557 -0.09765614 0.13562994 0.36300915

fc3.weight f4 [64, 128]
000000 05 f1 2a 3c 8b b8 0a bb 51 86 93 3d e0 6b 0c bd
       0.01043344 -0.0021167125 0.07203353 -0.034282565
000010 e8 bb ba bc 22 bc 78 3e 49 f3 95 be bb c1 d5 3d
       -0.022794679 0.24290517 -0.29287174 0.10437342
000020 65 76 de 3d cc 1a 00 be 9f 13 5a bc a7 6e b2 3c
       0.10862426 -0.12510222 -0.013310342 0.021781279
000030 1c 5b e2 bd 9b 54 dd bd 0a 6a 73 bd 66 e7 cb bb
       -0.11052534 -0.10807153 -0.0594273 -0.006222653
000040 f9 d3 20 be 02 27 60 bd dd b1 00 3d fa 12 b9 be
       -0.15705861 -0.0547247 0.031419624 -0.3614729
000050 60 d8 db bd 40 3a 7f 3b 83 41 d6 3b 1c 97 3c be
       -0.1073463 0.0038944632 0.0065385713 -0.18417019
000060 e4 90 c1 3d 00 c9 28 3e 00 26 7f be c9 2d 34 3e
       0.09451464 0.16482925 -0.2491684 0.1759559
000070 bf 7c 41 be 45 44 0e be 14 0c 70 3d e1 af 58 be
       -0.18895243 -0.1389323 0.05860527 -0.21160842
000080 90 67 5e be 29 7f ba 37 fc 37 2a be d1 4f b0 3d
       -0.21719193 2.2232141e-05 -0.16622919 0.08608974
000090 e9 2f 95 be 52 d6 2c 3e 0c b4 53 be cd b9 86 3c
       -0.29138115 0.16878632 -0.20674151 0.016446019
0000a0 b4 24 85 bd 9b e5 e2 3d 4d ba 2a be cc 83 07 3d
       -0.06501141 0.1107895 -0.1667263 0.033084676
0000b0 9e a0 8b bc 74 50 d6 bd b3 33 4e 3c ac a3 9a 3d
       -0.017044362 -0.10464564 0.012585568 0.07550749
0000c0 0f cb d9 3d 0f ed 74 39 6d e7 94 3c 2e 1a 71 bd
       0.106344335 0.00023357965 0.018176759 -0.058862858
0000d0 0a 67 5b 3a 94 40 94 bc 73 da 90 bd 40 23 45 be
       0.0008369541 -0.0180972 -0.07072916 -0.19251728
0000e0 0f 76 05 be be a6 44 ba 2e 48 7c 3d e6 4d 79 3d
       -0.13033317 -0.0007501653 0.061592273 0.060865305
0000f0 82 22 cb bd 82 5f ec 3d e6 5c 02 be da 58 e4 3c
       -0.09918691 0.11541654 -0.1273075 0.027874399
000100 d9 9b 86 3b e6 d7 50 3d 79 f4 1d bd 3f a3 94 3d
       0.004107934 0.050987147 -0.038563225 0.07257699
000110 d1 84 5e 3e 5f 74 d5 3d c5 7f f7 3d 92 46 b9 3c
       0.21730353 0.10422587 0.12084917 0.022616658
000120 34 ce 45 be 66 d3 86 be cb 37 84 3d 20 8a cc bd
       -0.19316941 -0.2633316 0.06455954 -0.09987283
000130 e1 85 81 3c bb 01 e2 bc 31 40 7a 3c 13 47 ae bc
       0.015810909 -0.027588716 0.0152740935 -0.021274125
000140 2e 69 d7 bc a4 0b c0 bc ab a8 0f be 00 97 cf bd
       -0.02629527 -0.02344305 -0.14029185 -0.10136223
000150 74 d0 c8 3d 58 13 ce 3d e0 f6 0f be 31 05 83 bd
       0.09805384 0.10062283 -0.14059019 -0.063974746
000160 dc b1 cc 3d 39 8c 3b be 6b 48 98 3d 87 8f 8a be
       0.099948615 -0.1831521 0.07435688 -0.27062628
000170 d0 40 54 3d b3 41 ae 3d 70 4f c5 3b 6a 49 84 3c
       0.051819623 0.08508625 0.0060214326 0.016148288
000180 c7 01 ce bc 50 e2 34 39 21 cf 82 bd cf ea 76 3e
       -0.025147332 0.00017250446 -0.06387163 0.2411301
000190 cf f6 9a 3d 2c ff 84 3d 23 2d 17 3e 1c 08 da bd
       0.07566606 0.06493983 0.14763312 -0.10646078
0001a0 f7 c4 c0 3c cb 42 4f 3e 26 c6 b8 be 6d 17 44 3e
       0.02353142 0.20240323 -0.36088675 0.19149561
0001b0 68 94 a6 bc 4c 57 46 bd af 78 8b 3e d0 3b 94 3d
       -0.020334437 -0.048423097 0.27240512 0.07237971
0001c0 34 98 b3 3c 9c 6c 6c bd 25 f6 26 be 59 8a 37 3d
       0.021923162 -0.057720765 -0.16304834 0.044809673
0001d0 f2 4f 5b 3e 40 c6 8a 3d f1 a4 96 3d a5 c8 1c bd
       0.21417215 0.067760944 0.07355679 -0.038277287
0001e0 c4 86 36 3d a3 43 9e bd 12 06 83 bd 26 2c e0 3d
       0.044562116 -0.077277444 -0.06397642 0.10945921
0001f0 33 33 81 be 98 40 d7 bc 0f fc 61 3d 69 f1 b7 3e
       -0.25234374 -0.026275918 0.055172022 0.3592637
000200 bb ab 0c bc c8 e5 9f 3d f3 93 b6 bd 3d 40 39 bd
       -0.008585866 0.07807499 -0.08914938 -0.045227278
000210 ac ee 57 b9 54 81 20 3e ee 2c 52 3d 07 9b de 3c
       -0.0002059291 0.15674335 0.05131238 0.027173532
000220 a9 27 c6 bb 83 56 45 bd 61 f5 8a bb 60 77 4a be
       -0.0060472083 -0.048178207 -0.004240677 -0.197721
000230 40 c1 94 3b de 7d 3a be 89 60 5c be b4 2b 53 3e
       0.0045396388 -0.18212077 -0.215212 0.2062214
000240 02 75 95 bd 1d ef f6 bb a7 4a 44 be 66 89 33 3d
       -0.07297708 -0.0075358287 -0.19169103 0.043832205
000250 2f 49 17 be 72 6e dc bd f7 e2 ad bc bf 26 82 bd
       -0.14774011 -0.10763253 -0.02122639 -0.063550465
000260 3a ce ca bd 42 4d 1f be f2 55 8c 3e d1 4a f9 bd
       -0.09902616 -0.15556815 0.2740932 -0.12172473
000270 34 73 82 bb c0 3a 8e bd 17 d2 d1 bd 41 5f f2 3c
       -0.0039810184 -0.069447994 -0.102451496 0.029586436
000280 ec 2d a1 bd 0a d6 91 bd e9 df 55 be 66 f9 98 3d
       -0.07870087 -0.07120903 -0.20886196 0.07469444
000290 bc 0f db bd 32 42 e4 3c c4 99 2e bd 7f 0a eb bd
       -0.106963605 0.027863596 -0.04262711 -0.11476611
0002a0 19 f3 46 3c 09 bc 26 3d 67 eb 76 bd 5a 26 0a be
       0.01214292 0.040706668 -0.06028309 -0.13491192
0002b0 fd b8 c5 3b 07 7d 7c 3d b9 e5 e0 bd ed 4b 1c bb
       0.006034015 0.061642673 -0.10981316 -0.0023848966
0002c0 f1 36 08 bd 24 99 6f bd 7b 98 59 bd 8c 2e 86 3e
       -0.03325552 -0.058495656 -0.053123932 0.26207387
0002d0 f2 b1 3a be 1d 2b e6 bd 29 72 aa 3c ac cf cc 3d
       -0.18231943 -0.11238692 0.020806389 0.10000548
0002e0 81 d9 d2 bd 13 e6 f5 3d 69 3e 97 3d df 6a 20 bd
       -0.10295392 0.12006774 0.07384951 -0.03916442
0002f0 41 85 0f 3e fb 5b f8 bd e7 ec e5 bc cf df 84 3d
       0.14015676 -0.12126919 -0.028067065 0.064880006
000300 01 da 1a be 27 66 b5 3d 28 ed 17 bd 75 7d e8 bd
       -0.15122224 0.08857375 -0.037091404 -0.11352054
000310 11 47 d0 bd 50 5d 74 3d bf b6 57 bd f4 c9 7c 3d
       -0.10169805 0.059659302 -0.052664515 0.061716035
000320 a3 0a 0c 3d cd 41 c1 3d 43 66 d7 bc 22 28 99 bc
       0.03418983 0.09436379 -0.02629388 -0.018695895
000330 5d 6f a5 bd ad 34 85 3c fa f2 67 3e be aa c3 bb
       -0.080778815 0.01626047 0.22651282 -0.005971282
000340 6f 99 66 bd 3c 8c 84 3d 4f 35 3a 3b 38 49 b2 3d
       -0.05629867 0.0647206 0.0028413122 0.087053716
000350 0c 32 39 be b1 d2 0d bd 68 71 27 bc 6c 56 3f bd
       -0.18085498 -0.03462476 -0.010219909 -0.046713278
000360 89 05 42 be dd a6 dd bd d4 fe 47 3d 5f 8a d1 3d
       -0.18947424 -0.10822842 0.048827007 0.1023147
000370 aa 81 7e bd 70 d0 df bd 55 07 79 bd b0 7e 1f 3e
       -0.062135376 -0.10928428 -0.060798008 0.15575671
000380 ba 70 09 be 8b b0 08 3e df e2 12 be 2a 23 a3 3d
       -0.13421908 0.13348596 -0.14344357 0.079656914
000390 d1 93 61 be 4e 8b b7 3c 87 56 dd 3c c1 d7 2d bd
       -0.22029044 0.022405293 0.027018799 -0.042442087
0003a0 56 b4 08 3d d2 82 3d 3c a5 6d 18 be 57 42 b4 3d
       0.033375107 0.0115668345 -0.14885576 0.08801716
0003b0 0c ef 80 3d 82 88 d5 3d 9d 72 23 be 4f 69 22 3e
       0.062955946 0.104264274 -0.1596169 0.15860485
0003c0 bf 74 04 3d 69 e1 c4 3b 31 5a 44 be f6 57 ca bc
       0.0323379 0.0060083163 -0.1917503 -0.024700146
0003d0 dd e9 23 be 82 95 ab 3c 8e d1 be 3c 43 27 10 bd
       -0.1600718 0.020945314 0.023293283 -0.035193693
0003e0 41 99 3e be 5e c2 ab bd c4 3e 89 3d e4 b1 a1 bd
       -0.18613149 -0.08386682 0.06701425 -0.07895258
0003f0 19 c2 5e be ff 1f 79 bb ec 9e 37 3e 68 9b e8 bc
       -0.2175373 -0.0038013456 0.17931718 -0.028394416

fc3.bias f4 [64]
000000 b3 2f 16 3f 93 ab 1a be a2 40 fa 3e e9 4a ea 3e
       0.58666533 -0.15104513 0.48877436 0.45760277
000010 44 81 e3 3e 1b 09 b9 3e cb 9b 18 3f 78 d9 d0 3e
       0.4443456 0.3613976 0.5961272 0.40790915
000020 14 7e e8 3e 23 f8 cc 3e 7e 99 d3 3e ff ca f9 3e
       0.4540869 0.40033063 0.41328043 0.48787686
000030 9d a3 bd 3e f8 a0 e6 3e 9c 68 cc 3e d3 b7 b0 3e
       0.3703889 0.45044684 0.3992356 0.34515247
000040 73 4d ec 3e 75 db ec 3e 92 9f ce 3e b1 3c fe 3e
       0.4615284 0.46261182 0.40356117 0.4965568
000050 61 25 cf 3e 11 11 c2 3e 88 4e 13 3f 6c d9 f7 3e
       0.40458205 0.37903646 0.57541704 0.48408067
000060 d8 9f 5f 3d 57 44 b7 3e 99 6e ee 3e c6 65 04 3d
       0.0545958 0.35794327 0.46568754 0.03232362
000070 be 6c 83 3c d9 1f dd 3e 43 1e 0f 3f 26 90 db 3e
       0.016043063 0.4318836 0.5590555 0.42883414
000080 cb 24 49 3e 29 19 98 3e e9 a3 b4 3e c7 80 9c 3e
       0.19642942 0.29706696 0.35281304 0.30567
000090 04 b8 ac 3e e4 d8 f9 3e 24 13 d1 3e 7b 65 0d 3f
       0.33734143 0.48798287 0.40834916 0.5523297
0000a0 08 3f ee 3e 0a 32 07 3f 29 2d 2e be e8 3e 17 3f
       0.46532464 0.5281073 -0.17009415 0.5908036
0000b0 8a e5 47 3e c6 ba 81 3e b2 38 4f bc 0a 9e cc 3e
       0.19521156 0.2533781 -0.012647795 0.39964324
0000c0 ea 9a ec 3e bc 0c 6b 3e 17 dc d3 3e d9 09 ea 3e
       0.4621194 0.22954077 0.41378853 0.45710638
0000d0 da 2c ed 3e 25 4e c6 3e ba 34 63 3e c1 36 9c bc
       0.46323282 0.38731495 0.22188082 -0.019069077
0000e0 4e c0 f5 3e 7b 5f 06 3f 2d 7b c1 3e 51 cf 8f 3e
       0.4799828 0.5248944 0.37789288 0.28087857
0000f0 95 2e 96 3e 61 0e 12 3f fd 52 e3 3e 9f 6b e9 3e
       0.29332414 0.5705319 0.44399253 0.4558992

out.weight f4 [1, 64]
000000 73 a5 6b 3d 43 9e c1 3c 53 28 83 bd 8d f2 3a bd
       0.05753083 0.023635035 -0.064041756 -0.04564147
000010 66 cf 55 bd 0e fc 50 3d bd f7 79 3d 5d 50 2e bd
       -0.052199744 0.051021628 0.061027277 -0.04255711
000020 9b 11 2e bd be db e7 bc 07 0c 56 3d 25 3d 4f bd
       -0.04249726 -0.028303023 0.052257564 -0.05059542
000030 cf 87 1d bd 6f 83 84 3d 5b aa 81 bd 77 52 49 3d
       -0.038459595 0.064703815 -0.06331321 0.04915091
000040 bf 2a 2e bd 6f 12 5b bd 59 07 5a bd 23 40 89 3d
       -0.042521235 -0.053484377 -0.053229664 0.06701686
000050 41 82 2a 3d 30 4c 53 bd 4a a9 3b bd 5e 05 cb 3d
       0.041628126 -0.05158633 -0.045815744 0.09913133
000060 fa 60 5a be 9e e2 16 bd fa 06 27 3d 13 21 3d 3c
       -0.21326056 -0.036837213 0.040778138 0.01154353
000070 ee 56 0b 3d b6 9c 0a bd 43 05 77 bd ba a6 08 bd
       0.03401845 -0.033840857 -0.060307752 -0.033362128
000080 1c 96 cb 3c c5 0b 4c 3d 85 23 6d bd de 02 1d bd
       0.024851851 0.04981591 -0.057895202 -0.038332812
000090 83 18 3c bd 1f 8e 31 3d 6b a3 38 3d ab d6 a6 3d
       -0.045921814 0.043348428 0.045077723 0.081464134
0000a0 72 fd 62 bd 3d ee 82 3d cc ad 8b 3c 17 37 2c 3d
       -0.055417486 0.063930966 0.017050646 0.042044725
0000b0 f0 9e 67 3d 38 8f 5d 3d 14 91 be bc dd 28 27 bd
       0.05654806 0.054091662 -0.023262538 -0.040810455
0000c0 72 76 18 bd 0b 2a 10 bd 90 5f 82 bd 18 1a 89 3d
       -0.037222333 -0.035196345 -0.06365883 0.0669443
0000d0 b2 42 51 3d 02 ef 01 3d b2 77 20 3d d4 3e e5 3b
       0.051088996 0.031722076 0.03917665 0.006996015
0000e0 82 29 38 bd 3e c2 96 3d cb 4e 96 3d 14 e9 06 3d
       -0.04496146 0.073612675 0.07339247 0.032937124
0000f0 cb eb 47 3c 5b 61 13 bd 81 7d 63 3d 9f 48 5a bd
       0.0122022135 -0.035981517 0.05553961 -0.053291913

bn1.weight f4 [256]
000000 00 00 80 3f 00 00 80 3f 00 00 80 3f 00 00 80 3f
       1.0 1.0 1.0 1.0
000010 00 00 80 3f 00 00 80 3f 00 00 80 3f 00 00 80 3f
       1.0 1.0 1.0 1.0
000020 00 00 80 3f 00 00 80 3f 00 00 80 3f 00 00 80 3f
       1.0 1.0 1.0 1.0
000030 00 00 80 3f 00 00 80 3f 00 00 80 3f 00 00 80 3f
       1.0 1.0 1.0 1.0
000040 00 00 80 3f 00 00 80 3f 00 00 80 3f 00 00 80 3f
       1.0 1.0 1.0 1.0
000050 00 00 80 3f 00 00 80 3f 00 00 80 3f 00 00 80 3f
       1.0 1.0 1.0 1.0
000060 00 00 80 3f 00 00 80 3f 00 00 80 3f 00 00 80 3f
       1.0 1.0 1.0 1.0
000070 00 00 80 3f 00 00 80 3f 00 00 80 3f 00 00 80 3f
       1.0 1.0 1.0 1.0
000080 00 00 80 3f 00 00 80 3f 00 00 80 3f 00 00 80 3f
       1.0 1.0 1.0 1.0
000090 00 00 80 3f 00 00 80 3f 00 00 80 3f 00 00 80 3f
       1.0 1.0 1.0 1.0
0000a0 00 00 80 3f 00 00 80 3f 00 00 80 3f 00 00 80 3f
       1.0 1.0 1.0 1.0
0000b0 00 00 80 3f 00 00 80 3f 00 00 80 3f 00 00 80 3f
       1.0 1.0 1.0 1.0
0000c0 00 00 80 3f 00 00 80 3f 00 00 80 3f 00 00 80 3f
       1.0 1.0 1.0 1.0
0000d0 00 00 80 3f 00 00 80 3f 00 00 80 3f 00 00 80 3f
       1.0 1.0 1.0 1.0
0000e0 00 00 80 3f 00 00 80 3f 00 00 80 3f 00 00 80 3f
       1.0 1.0 1.0 1.0
0000f0 00 00 80 3f 00 00 80 3f 00 00 80 3f 00 00 80 3f
       1.0 1.0 1.0 1.0
000100 00 00 80 3f 00 00 80 3f 00 00 80 3f 00 00 80 3f
       1.0 1.0 1.0 1.0
000110 00 00 80 3f 00 00 80 3f 00 00 80 3f 00 00 80 3f
       1.0 1.0 1.0 1.0
000120 00 00 80 3f 00 00 80 3f 00 00 80 3f 00 00 80 3f
       1.0 1.0 1.0 1.0
000130 00 00 80 3f 00 00 80 3f 00 00 80 3f 00 00 80 3f
       1.0 1.0 1.0 1.0
000140 00 00 80 3f 00 00 80 3f 00 00 80 3f 00 00 80 3f
       1.0 1.0 1.0 1.0
000150 00 00 80 3f 00 00 80 3f 00 00 80 3f 00 00 80 3f
       1.0 1.0 1.0 1.0
000160 00 00 80 3f 00 00 80 3f 00 00 80 3f 00 00 80 3f
       1.0 1.0 1.0 1.0
000170 00 00 80 3f 00 00 80 3f 00 00 80 3f 00 00 80 3f
       1.0 1.0 1.0 1.0
000180 00 00 80 3f 00 00 80 3f 00 00 80 3f 00 00 80 3f
       1.0 1.0 1.0 1.0
000190 00 00 80 3f 00 00 80 3f 00 00 80 3f 00 00 80 3f
       1.0 1.0 1.0 1.0
0001a0 00 00 80 3f 00 00 80 3f 00 00 80 3f 00 00 80 3f
       1.0 1.0 1.0 1.0
0001b0 00 00 80 3f 00 00 80 3f 00 00 80 3f 00 00 80 3f
       1.0 1.0 1.0 1.0
0001c0 00 00 80 3f 00 00 80 3f 00 00 80 3f 00 00 80 3f
       1.0 1.0 1.0 1.0
0001d0 00 00 80 3f 00 00 80 3f 00 00 80 3f 00 00 80 3f
       1.0 1.0 1.0 1.0
0001e0 00 00 80 3f 00 00 80 3f 00 00 80 3f 00 00 80 3f
       1.0 1.0 1.0 1.0
0001f0 00 00 80 3f 00 00 80 3f 00 00 80 3f 00 00 80 3f
       1.0 1.0 1.0 1.0
000200 00 00 80 3f 00 00 80 3f 00 00 80 3f 00 00 80 3f
       1.0 1.0 1.0 1.0
000210 00 00 80 3f 00 00 80 3f 00 00 80 3f 00 00 80 3f
       1.0 1.0 1.0 1.0
000220 00 00 80 3f 00 00 80 3f 00 00 80 3f 00 00 80 3f
       1.0 1.0 1.0 1.0
000230 00 00 80 3f 00 00 80 3f 00 00 80 3f 00 00 80 3f
       1.0 1.0 1.0 1.0
000240 00 00 80 3f 00 00 80 3f 00 00 80 3f 00 00 80 3f
       1.0 1.0 1.0 1.0
000250 00 00 80 3f 00 00 80 3f 00 00 80 3f 00 00 80 3f
       1.0 1.0 1.0 1.0
000260 00 00 80 3f 00 00 80 3f 00 00 80 3f 00 00 80 3f
       1.0 1.0 1.0 1.0
000270 00 00 80 3f 00 00 80 3f 00 00 80 3f 00 00 80 3f
       1.0 1.0 1.0 1.0
000280 00 00 80 3f 00 00 80 3f 00 00 80 3f 00 00 80 3f
       1.0 1.0 1.0 1.0
000290 00 00 80 3f 00 00 80 3f 00 00 80 3f 00 00 80 3f
       1.0 1.0 1.0 1.0
0002a0 00 00 80 3f 00 00 80 3f 00 00 80 3f 00 00 80 3f
       1.0 1.0 1.0 1.0
0002b0 00 00 80 3f 00 00 80 3f 00 00 80 3f 00 00 80 3f
       1.0 1.0 1.0 1.0
0002c0 00 00 80 3f 00 00 80 3f 00 00 80 3f 00 00 80 3f
       1.0 1.0 1.0 1.0
0002d0 00 00 80 3f 00 00 80 3f 00 00 80 3f 00 00 80 3f
       1.0 1.0 1.0 1.0
0002e0 00 00 80 3f 00 00 80 3f 00 00 80 3f 00 00 80 3f
       1.0 1.0 1.0 1.0
0002f0 00 00 80 3f 00 00 80 3f 00 00 80 3f 00 00 80 3f
       1.0 1.0 1.0 1.0
000300 00 00 80 3f 00 00 80 3f 00 00 80 3f 00 00 80 3f
       1.0 1.0 1.0 1.0
000310 00 00 80 3f 00 00 80 3f 00 00 80 3f 00 00 80 3f
       1.0 1.0 1.0 1.0
000320 00 00 80 3f 00 00 80 3f 00 00 80 3f 00 00 80 3f
       1.0 1.0 1.0 1.0
000330 00 00 80 3f 00 00 80 3f 00 00 80 3f 00 00 80 3f
       1.0 1.0 1.0 1.0
000340 00 00 80 3f 00 00 80 3f 00 00 80 3f 00 00 80 3f
       1.0 1.0 1.0 1.0
000350 00 00 80 3f 00 00 80 3f 00 00 80 3f 00 00 80 3f
       1.0 1.0 1.0 1.0
000360 00 00 80 3f 00 00 80 3f 00 00 80 3f 00 00 80 3f
       1.0 1.0 1.0 1.0
000370 00 00 80 3f 00 00 80 3f 00 00 80 3f 00 00 80 3f
       1.0 1.0 1.0 1.0
000380 00 00 80 3f 00 00 80 3f 00 00 80 3f 00 00 80 3f
       1.0 1.0 1.0 1.0
000390 00 00 80 3f 00 00 80 3f 00 00 80 3f 00 00 80 3f
       1.0 1.0 1.0 1.0
0003a0 00 00 80 3f 00 00 80 3f 00 00 80 3f 00 00 80 3f
       1.0 1.0 1.0 1.0
0003b0 00 00 80 3f 00 00 80 3f 00 00 80 3f 00 00 80 3f
       1.0 1.0 1.0 1.0
0003c0 00 00 80 3f 00 00 80 3f 00 00 80 3f 00 00 80 3f
       1.0 1.0 1.0 1.0
0003d0 00 00 80 3f 00 00 80 3f 00 00 80 3f 00 00 80 3f
       1.0 1.0 1.0 1.0
0003e0 00 00 80 3f 00 00 80 3f 00 00 80 3f 00 00 80 3f
       1.0 1.0 1.0 1.0
0003f0 00 00 80 3f 00 00 80 3f 00 00 80 3f 00 00 80 3f
       1.0 1.0 1.0 1.0

bn1.bias f4 [256]
000000 00 00 00 00 00 00 00 00 00 00 00 00 00 00 00 00
       0.0 0.0 0.0 0.0
000010 00 00 00 00 00 00 00 00 00 00 00 00 00 00 00 00
       0.0 0.0 0.0 0.0
000020 00 00 00 00 00 00 00 00 00 00 00 00 00 00 00 00
       0.0 0.0 0.0 0.0
000030 00 00 00 00 00 00 00 00 00 00 00 00 00 00 00 00
       0.0 0.0 0.0 0.0
000040 00 00 00 00 00 00 00 00 00 00 00 00 00 00 00 00
       0.0 0.0 0.0 0.0
000050 00 00 00 00 00 00 00 00 00 00 00 00 00 00 00 00
       0.0 0.0 0.0 0.0
000060 00 00 00 00 00 00 00 00 00 00 00 00 00 00 00 00
       0.0 0.0 0.0 0.0
000070 00 00 00 00 00 00 00 00 00 00 00 00 00 00 00 00
       0.0 0.0 0.0 0.0
000080 00 00 00 00 00 00 00 00 00 00 00 00 00 00 00 00
       0.0 0.0 0.0 0.0
000090 00 00 00 00 00 00 00 00 00 00 00 00 00 00 00 00
       0.0 0.0 0.0 0.0
0000a0 00 00 00 00 00 00 00 00 00 00 00 00 00 00 00 00
       0.0 0.0 0.0 0.0
0000b0 00 00 00 00 00 00 00 00 00 00 00 00 00 00 00 00
       0.0 0.0 0.0 0.0
0000c0 00 00 00 00 00 00 00 00 00 00 00 00 00 00 00 00
       0.0 0.0 0.0 0.0
0000d0 00 00 00 00 00 00 00 00 00 00 00 00 00 00 00 00
       0.0 0.0 0.0 0.0
0000e0 00 00 00 00 00 00 00 00 00 00 00 00 00 00 00 00
       0.0 0.0 0.0 0.0
0000f0 00 00 00 00 00 00 00 00 00 00 00 00 00 00 00 00
       0.0 0.0 0.0 0.0
000100 00 00 00 00 00 00 00 00 00 00 00 00 00 00 00 00
       0.0 0.0 0.0 0.0
000110 00 00 00 00 00 00 00 00 00 00 00 00 00 00 00 00
       0.0 0.0 0.0 0.0
000120 00 00 00 00 00 00 00 00 00 00 00 00 00 00 00 00
       0.0 0.0 0.0 0.0
000130 00 00 00 00 00 00 00 00 00 00 00 00 00 00 00 00
       0.0 0.0 0.0 0.0
000140 00 00 00 00 00 00 00 00 00 00 00 00 00 00 00 00
       0.0 0.0 0.0 0.0
000150 00 00 00 00 00 00 00 00 00 00 00 00 00 00 00 00
       0.0 0.0 0.0 0.0
000160 00 00 00 00 00 00 00 00 00 00 00 00 00 00 00 00
       0.0 0.0 0.0 0.0
000170 00 00 00 00 00 00 00 00 00 00 00 00 00 00 00 00
       0.0 0.0 0.0 0.0
000180 00 00 00 00 00 00 00 00 00 00 00 00 00 00 00 00
       0.0 0.0 0.0 0.0
000190 00 00 00 00 00 00 00 00 00 00 00 00 00 00 00 00
       0.0 0.0 0.0 0.0
0001a0 00 00 00 00 00 00 00 00 00 00 00 00 00 00 00 00
       0.0 0.0 0.0 0.0
0001b0 00 00 00 00 00 00 00 00 00 00 00 00 00 00 00 00
       0.0 0.0 0.0 0.0
0001c0 00 00 00 00 00 00 00 00 00 00 00 00 00 00 00 00
       0.0 0.0 0.0 0.0
0001d0 00 00 00 00 00 00 00 00 00 00 00 00 00 00 00 00
       0.0 0.0 0.0 0.0
0001e0 00 00 00 00 00 00 00 00 00 00 00 00 00 00 00 00
       0.0 0.0 0.0 0.0
0001f0 00 00 00 00 00 00 00 00 00 00 00 00 00 00 00 00
       0.0 0.0 0.0 0.0
000200 00 00 00 00 00 00 00 00 00 00 00 00 00 00 00 00
       0.0 0.0 0.0 0.0
000210 00 00 00 00 00 00 00 00 00 00 00 00 00 00 00 00
       0.0 0.0 0.0 0.0
000220 00 00 00 00 00 00 00 00 00 00 00 00 00 00 00 00
       0.0 0.0 0.0 0.0
000230 00 00 00 00 00 00 00 00 00 00 00 00 00 00 00 00
       0.0 0.0 0.0 0.0
000240 00 00 00 00 00 00 00 00 00 00 00 00 00 00 00 00
       0.0 0.0 0.0 0.0
000250 00 00 00 00 00 00 00 00 00 00 00 00 00 00 00 00
       0.0 0.0 0.0 0.0
000260 00 00 00 00 00 00 00 00 00 00 00 00 00 00 00 00
       0.0 0.0 0.0 0.0
000270 00 00 00 00 00 00 00 00 00 00 00 00 00 00 00 00
       0.0 0.0 0.0 0.0
000280 00 00 00 00 00 00 00 00 00 00 00 00 00 00 00 00
       0.0 0.0 0.0 0.0
000290 00 00 00 00 00 00 00 00 00 00 00 00 00 00 00 00
       0.0 0.0 0.0 0.0
0002a0 00 00 00 00 00 00 00 00 00 00 00 00 00 00 00 00
       0.0 0.0 0.0 0.0
0002b0 00 00 00 00 00 00 00 00 00 00 00 00 00 00 00 00
       0.0 0.0 0.0 0.0
0002c0 00 00 00 00 00 00 00 00 00 00 00 00 00 00 00 00
       0.0 0.0 0.0 0.0
0002d0 00 00 00 00 00 00 00 00 00 00 00 00 00 00 00 00
       0.0 0.0 0.0 0.0
0002e0 00 00 00 00 00 00 00 00 00 00 00 00 00 00 00 00
       0.0 0.0 0.0 0.0
0002f0 00 00 00 00 00 00 00 00 00 00 00 00 00 00 00 00
       0.0 0.0 0.0 0.0
000300 00 00 00 00 00 00 00 00 00 00 00 00 00 00 00 00
       0.0 0.0 0.0 0.0
000310 00 00 00 00 00 00 00 00 00 00 00 00 00 00 00 00
       0.0 0.0 0.0 0.0
000320 00 00 00 00 00 00 00 00 00 00 00 00 00 00 00 00
       0.0 0.0 0.0 0.0
000330 00 00 00 00 00 00 00 00 00 00 00 00 00 00 00 00
       0.0 0.0 0.0 0.0
000340 00 00 00 00 00 00 00 00 00 00 00 00 00 00 00 00
       0.0 0.0 0.0 0.0
000350 00 00 00 00 00 00 00 00 00 00 00 00 00 00 00 00
       0.0 0.0 0.0 0.0
000360 00 00 00 00 00 00 00 00 00 00 00 00 00 00 00 00
       0.0 0.0 0.0 0.0
000370 00 00 00 00 00 00 00 00 00 00 00 00 00 00 00 00
       0.0 0.0 0.0 0.0
000380 00 00 00 00 00 00 00 00 00 00 00 00 00 00 00 00
       0.0 0.0 0.0 0.0
000390 00 00 00 00 00 00 00 00 00 00 00 00 00 00 00 00
       0.0 0.0 0.0 0.0
0003a0 00 00 00 00 00 00 00 00 00 00 00 00 00 00 00 00
       0.0 0.0 0.0 0.0
0003b0 00 00 00 00 00 00 00 00 00 00 00 00 00 00 00 00
       0.0 0.0 0.0 0.0
0003c0 00 00 00 00 00 00 00 00 00 00 00 00 00 00 00 00
       0.0 0.0 0.0 0.0
0003d0 00 00 00 00 00 00 00 00 00 00 00 00 00 00 00 00
       0.0 0.0 0.0 0.0
0003e0 00 00 00 00 00 00 00 00 00 00 00 00 00 00 00 00
       0.0 0.0 0.0 0.0
0003f0 00 00 00 00 00 00 00 00 00 00 00 00 00 00 00 00
       0.0 0.0 0.0 0.0

bn1.running_mean f4 [256]
000000 00 00 00 00 00 00 00 00 00 00 00 00 00 00 00 00
       0.0 0.0 0.0 0.0
000010 00 00 00 00 00 00 00 00 00 00 00 00 00 00 00 00
       0.0 0.0 0.0 0.0
000020 00 00 00 00 00 00 00 00 00 00 00 00 00 00 00 00
       0.0 0.0 0.0 0.0
000030 00 00 00 00 00 00 00 00 00 00 00 00 00 00 00 00
       0.0 0.0 0.0 0.0
000040 00 00 00 00 00 00 00 00 00 00 00 00 00 00 00 00
       0.0 0.0 0.0 0.0
000050 00 00 00 00 00 00 00 00 00 00 00 00 00 00 00 00
       0.0 0.0 0.0 0.0
000060 00 00 00 00 00 00 00 00 00 00 00 00 00 00 00 00
       0.0 0.0 0.0 0.0
000070 00 00 00 00 00 00 00 00 00 00 00 00 00 00 00 00
       0.0 0.0 0.0 0.0
000080 00 00 00 00 00 00 00 00 00 00 00 00 00 00 00 00
       0.0 0.0 0.0 0.0
000090 00 00 00 00 00 00 00 00 00 00 00 00 00 00 00 00
       0.0 0.0 0.0 0.0
0000a0 00 00 00 00 00 00 00 00 00 00 00 00 00 00 00 00
       0.0 0.0 0.0 0.0
0000b0 00 00 00 00 00 00 00 00 00 00 00 00 00 00 00 00
       0.0 0.0 0.0 0.0
0000c0 00 00 00 00 00 00 00 00 00 00 00 00 00 00 00 00
       0.0 0.0 0.0 0.0
0000d0 00 00 00 00 00 00 00 00 00 00 00 00 00 00 00 00
       0.0 0.0 0.0 0.0
0000e0 00 00 00 00 00 00 00 00 00 00 00 00 00 00 00 00
       0.0 0.0 0.0 0.0
0000f0 00 00 00 00 00 00 00 00 00 00 00 00 00 00 00 00
       0.0 0.0 0.0 0.0
000100 00 00 00 00 00 00 00 00 00 00 00 00 00 00 00 00
       0.0 0.0 0.0 0.0
000110 00 00 00 00 00 00 00 00 00 00 00 00 00 00 00 00
       0.0 0.0 0.0 0.0
000120 00 00 00 00 00 00 00 00 00 00 00 00 00 00 00 00
       0.0 0.0 0.0 0.0
000130 00 00 00 00 00 00 00 00 00 00 00 00 00 00 00 00
       0.0 0.0 0.0 0.0
000140 00 00 00 00 00 00 00 00 00 00 00 00 00 00 00 00
       0.0 0.0 0.0 0.0
000150 00 00 00 00 00 00 00 00 00 00 00 00 00 00 00 00
       0.0 0.0 0.0 0.0
000160 00 00 00 00 00 00 00 00 00 00 00 00 00 00 00 00
       0.0 0.0 0.0 0.0
000170 00 00 00 00 00 00 00 00 00 00 00 00 00 00 00 00
       0.0 0.0 0.0 0.0
000180 00 00 00 00 00 00 00 00 00 00 00 00 00 00 00 00
       0.0 0.0 0.0 0.0
000190 00 00 00 00 00 00 00 00 00 00 00 00 00 00 00 00
       0.0 0.0 0.0 0.0
0001a0 00 00 00 00 00 00 00 00 00 00 00 00 00 00 00 00
       0.0 0.0 0.0 0.0
0001b0 00 00 00 00 00 00 00 00 00 00 00 00 00 00 00 00
       0.0 0.0 0.0 0.0
0001c0 00 00 00 00 00 00 00 00 00 00 00 00 00 00 00 00
       0.0 0.0 0.0 0.0
0001d0 00 00 00 00 00 00 00 00 00 00 00 00 00 00 00 00
       0.0 0.0 0.0 0.0
0001e0 00 00 00 00 00 00 00 00 00 00 00 00 00 00 00 00
       0.0 0.0 0.0 0.0
0001f0 00 00 00 00 00 00 00 00 00 00 00 00 00 00 00 00
       0.0 0.0 0.0 0.0
000200 00 00 00 00 00 00 00 00 00 00 00 00 00 00 00 00
       0.0 0.0 0.0 0.0
000210 00 00 00 00 00 00 00 00 00 00 00 00 00 00 00 00
       0.0 0.0 0.0 0.0
000220 00 00 00 00 00 00 00 00 00 00 00 00 00 00 00 00
       0.0 0.0 0.0 0.0
000230 00 00 00 00 00 00 00 00 00 00 00 00 00 00 00 00
       0.0 0.0 0.0 0.0
000240 00 00 00 00 00 00 00 00 00 00 00 00 00 00 00 00
       0.0 0.0 0.0 0.0
000250 00 00 00 00 00 00 00 00 00 00 00 00 00 00 00 00
       0.0 0.0 0.0 0.0
000260 00 00 00 00 00 00 00 00 00 00 00 00 00 00 00 00
       0.0 0.0 0.0 0.0
000270 00 00 00 00 00 00 00 00 00 00 00 00 00 00 00 00
       0.0 0.0 0.0 0.0
000280 00 00 00 00 00 00 00 00 00 00 00 00 00 00 00 00
       0.0 0.0 0.0 0.0
000290 00 00 00 00 00 00 00 00 00 00 00 00 00 00 00 00
       0.0 0.0 0.0 0.0
0002a0 00 00 00 00 00 00 00 00 00 00 00 00 00 00 00 00
       0.0 0.0 0.0 0.0
0002b0 00 00 00 00 00 00 00 00 00 00 00 00 00 00 00 00
       0.0 0.0 0.0 0.0
0002c0 00 00 00 00 00 00 00 00 00 00 00 00 00 00 00 00
       0.0 0.0 0.0 0.0
0002d0 00 00 00 00 00 00 00 00 00 00 00 00 00 00 00 00
       0.0 0.0 0.0 0.0
0002e0 00 00 00 00 00 00 00 00 00 00 00 00 00 00 00 00
       0.0 0.0 0.0 0.0
0002f0 00 00 00 00 00 00 00 00 00 00 00 00 00 00 00 00
       0.0 0.0 0.0 0.0
000300 00 00 00 00 00 00 00 00 00 00 00 00 00 00 00 00
       0.0 0.0 0.0 0.0
000310 00 00 00 00 00 00 00 00 00 00 00 00 00 00 00 00
       0.0 0.0 0.0 0.0
000320 00 00 00 00 00 00 00 00 00 00 00 00 00 00 00 00
       0.0 0.0 0.0 0.0
000330 00 00 00 00 00 00 00 00 00 00 00 00 00 00 00 00
       0.0 0.0 0.0 0.0
000340 00 00 00 00 00 00 00 00 00 00 00 00 00 00 00 00
       0.0 0.0 0.0 0.0
000350 00 00 00 00 00 00 00 00 00 00 00 00 00 00 00 00
       0.0 0.0 0.0 0.0
000360 00 00 00 00 00 00 00 00 00 00 00 00 00 00 00 00
       0.0 0.0 0.0 0.0
000370 00 00 00 00 00 00 00 00 00 00 00 00 00 00 00 00
       0.0 0.0 0.0 0.0
000380 00 00 00 00 00 00 00 00 00 00 00 00 00 00 00 00
       0.0 0.0 0.0 0.0
000390 00 00 00 00 00 00 00 00 00 00 00 00 00 00 00 00
       0.0 0.0 0.0 0.0
0003a0 00 00 00 00 00 00 00 00 00 00 00 00 00 00 00 00
       0.0 0.0 0.0 0.0
0003b0 00 00 00 00 00 00 00 00 00 00 00 00 00 00 00 00
       0.0 0.0 0.0 0.0
0003c0 00 00 00 00 00 00 00 00 00 00 00 00 00 00 00 00
       0.0 0.0 0.0 0.0
0003d0 00 00 00 00 00 00 00 00 00 00 00 00 00 00 00 00
       0.0 0.0 0.0 0.0
0003e0 00 00 00 00 00 00 00 00 00 00 00 00 00 00 00 00
       0.0 0.0 0.0 0.0
0003f0 00 00 00 00 00 00 00 00 00 00 00 00 00 00 00 00
       0.0 0.0 0.0 0.0
